…
disc_leaky_param = 0.2 # Both

learning_rate = 0.01 # Article: 0.01, Code: 0.001 (not good)
hiddens_gen = [100,100,100]
hiddens_disc = [55, 55]
round_with_beginning_set = -1

l2_regularization = 0.00001 # Article: 0, # Code: 0.1
gen_l2_regularization = l2_regularization
noise_size = 75 # z-size, Code: 100
critic = True
disc_bn_decay = 0 if critic else 0.01 # Aritlce: 0.01, Code: 0.2

disc_l2_regularization = l2_regularization
disc_learning_rate = learning_rate
gen_learning_rate = learning_rate




# Generator tuning
cats_vars_gan = cats_vars_xgb + ['ClaimNb']




Generator(
  (hidden_layers): Sequential(
    (0): Linear(in_features=75, out_features=100, bias=True)
    (1): ReLU()
    (2): Linear(in_features=100, out_features=100, bias=True)
    (3): BatchNorm1d(100, eps=1e-05, momentum=0.5, affine=True, track_running_stats=True)
    (4): ReLU()
    (5): Linear(in_features=100, out_features=100, bias=True)
    (6): BatchNorm1d(100, eps=1e-05, momentum=0.5, affine=True, track_running_stats=True)
    (7): ReLU()
  )
  (output): MultiCategorical(
    (output_layers): ModuleList(
      (0-13): 14 x Linear(in_features=100, out_features=1, bias=True)
      (14): Linear(in_features=100, out_features=11, bias=True)
      (15): Linear(in_features=100, out_features=2, bias=True)
      (16): Linear(in_features=100, out_features=22, bias=True)
      (17): Linear(in_features=100, out_features=6, bias=True)
      (18): Linear(in_features=100, out_features=5, bias=True)
    )
    (output_activations): ModuleList(
      (0-13): 14 x LeakyReLU(negative_slope=0.01)
      (14-18): 5 x CategoricalActivation()
    )
  )
)
Discriminator(
  (model): Sequential(
    (0): Linear(in_features=60, out_features=55, bias=True)
    (1): LeakyReLU(negative_slope=0.2)
    (2): Linear(in_features=55, out_features=55, bias=True)
    (3): LeakyReLU(negative_slope=0.2)
    (4): Linear(in_features=55, out_features=1, bias=True)
  )
)
ClaimNb Mean: 0.05326610225763612
Deviance Real: 29.967428184954567, Base: 31.98391531392399, Real MAE: 0.09807563347496587, Real RMSE: 0.23364888465251685
epoch 1/15000 generator.pt-train_mean_loss: 0.01570 Time: 26.61 s
epoch 1/15000 discriminator.pt-train_mean_loss: -0.73580 Time: 26.61 s
-----------------------------------------------
ClaimNb Mean: 0.088184
…
